…
[x1000c1s2b0n1] 2024-10-19 01:10:59,565 (abs_task:1225) INFO: world size: 4, rank: 0, local_rank: 0
[x1000c1s2b0n1] 2024-10-19 01:10:59,674 (vq:70) INFO: Using distributed residual vector quantization.
/home/users/ntu/ccdshyzh/miniconda3/envs/haoyang/lib/python3.9/site-packages/torch/nn/utils/weight_norm.py:134: FutureWarning: `torch.nn.utils.weight_norm` is deprecated in favor of `torch.nn.utils.parametrizations.weight_norm`.
  WeightNorm.apply(module, name, dim)
[x1000c1s2b0n1] 2024-10-19 01:11:00,100 (gan_speech_codec:385) INFO: Generator modules: Model structure:
ModuleList(
  (0): SEANetEncoder(
    (model): Sequential(
      (0): SConv1d(
        (conv): NormConv1d(
          (conv): Conv1d(1, 32, kernel_size=(7,), stride=(1,))
          (norm): GroupNorm(1, 32, eps=1e-05, affine=True)
        )
      )
      (1): SEANetResnetBlock(
        (block): Sequential(
          (0): ELU(alpha=1.0)
          (1): SConv1d(
            (conv): NormConv1d(
              (conv): Conv1d(32, 16, kernel_size=(3,), stride=(1,))
              (norm): GroupNorm(1, 16, eps=1e-05, affine=True)
            )
          )
          (2): ELU(alpha=1.0)
          (3): SConv1d(
            (conv): NormConv1d(
              (conv): Conv1d(16, 32, kernel_size=(1,), stride=(1,))
              (norm): GroupNorm(1, 32, eps=1e-05, affine=True)
            )
          )
        )
        (shortcut): SConv1d(
          (conv): NormConv1d(
            (conv): Conv1d(32, 32, kernel_size=(1,), stride=(1,))
            (norm): GroupNorm(1, 32, eps=1e-05, affine=True)
          )
        )
      )
      (2): SEANetResnetBlock(
        (block): Sequential(
          (0): ELU(alpha=1.0)
          (1): SConv1d(
            (conv): NormConv1d(
              (conv): Conv1d(32, 16, kernel_size=(3,), stride=(1,), dilation=(2,))
              (norm): GroupNorm(1, 16, eps=1e-05, affine=True)
            )
          )
          (2): ELU(alpha=1.0)
          (3): SConv1d(
            (conv): NormConv1d(
              (conv): Conv1d(16, 32, kernel_size=(1,), stride=(1,))
              (norm): GroupNorm(1, 32, eps=1e-05, affine=True)
            )
          )
        )
        (shortcut): SConv1d(
          (conv): NormConv1d(
            (conv): Conv1d(32, 32, kernel_size=(1,), stride=(1,))
            (norm): GroupNorm(1, 32, eps=1e-05, affine=True)
          )
        )
      )
      (3): SEANetResnetBlock(
        (block): Sequential(
          (0): ELU(alpha=1.0)
          (1): SConv1d(
            (conv): NormConv1d(
              (conv): Conv1d(32, 16, kernel_size=(3,), stride=(1,), dilation=(4,))
              (norm): GroupNorm(1, 16, eps=1e-05, affine=True)
            )
          )
          (2): ELU(alpha=1.0)
          (3): SConv1d(
            (conv): NormConv1d(
              (conv): Conv1d(16, 32, kernel_size=(1,), stride=(1,))
              (norm): GroupNorm(1, 32, eps=1e-05, affine=True)
            )
          )
        )
        (shortcut): SConv1d(
          (conv): NormConv1d(
            (conv): Conv1d(32, 32, kernel_size=(1,), stride=(1,))
            (norm): GroupNorm(1, 32, eps=1e-05, affine=True)
          )
        )
      )
      (4): ELU(alpha=1.0)
      (5): SConv1d(
        (conv): NormConv1d(
          (conv): Conv1d(32, 64, kernel_size=(4,), stride=(2,))
          (norm): GroupNorm(1, 64, eps=1e-05, affine=True)
        )
      )
      (6): SEANetResnetBlock(
        (block): Sequential(
          (0): ELU(alpha=1.0)
          (1): SConv1d(
            (conv): NormConv1d(
              (conv): Conv1d(64, 32, kernel_size=(3,), stride=(1,))
              (norm): GroupNorm(1, 32, eps=1e-05, affine=True)
            )
          )
          (2): ELU(alpha=1.0)
          (3): SConv1d(
            (conv): NormConv1d(
              (conv): Conv1d(32, 64, kernel_size=(1,), stride=(1,))
              (norm): GroupNorm(1, 64, eps=1e-05, affine=True)
            )
          )
        )
        (shortcut): SConv1d(
          (conv): NormConv1d(
            (conv): Conv1d(64, 64, kernel_size=(1,), stride=(1,))
            (norm): GroupNorm(1, 64, eps=1e-05, affine=True)
          )
        )
      )
      (7): SEANetResnetBlock(
        (block): Sequential(
          (0): ELU(alpha=1.0)
          (1): SConv1d(
            (conv): NormConv1d(
              (conv): Conv1d(64, 32, kernel_size=(3,), stride=(1,), dilation=(2,))
              (norm): GroupNorm(1, 32, eps=1e-05, affine=True)
            )
          )
          (2): ELU(alpha=1.0)
          (3): SConv1d(
            (conv): NormConv1d(
              (conv): Conv1d(32, 64, kernel_size=(1,), stride=(1,))
              (norm): GroupNorm(1, 64, eps=1e-05, affine=True)
            )
          )
        )
        (shortcut): SConv1d(
          (conv): NormConv1d(
            (conv): Conv1d(64, 64, kernel_size=(1,), stride=(1,))
            (norm): GroupNorm(1, 64, eps=1e-05, affine=True)
          )
        )
      )
      (8): SEANetResnetBlock(
        (block): Sequential(
          (0): ELU(alpha=1.0)
          (1): SConv1d(
            (conv): NormConv1d(
              (conv): Conv1d(64, 32, kernel_size=(3,), stride=(1,), dilation=(4,))
              (norm): GroupNorm(1, 32, eps=1e-05, affine=True)
            )
          )
          (2): ELU(alpha=1.0)
          (3): SConv1d(
            (conv): NormConv1d(
              (conv): Conv1d(32, 64, kernel_size=(1,), stride=(1,))
              (norm): GroupNorm(1, 64, eps=1e-05, affine=True)
            )
          )
        )
        (shortcut): SConv1d(
          (conv): NormConv1d(
            (conv): Conv1d(64, 64, kernel_size=(1,), stride=(1,))
            (norm): GroupNorm(1, 64, eps=1e-05, affine=True)
          )
        )
      )
      (9): ELU(alpha=1.0)
      (10): SConv1d(
        (conv): NormConv1d(
          (conv): Conv1d(64, 128, kernel_size=(8,), stride=(4,))
          (norm): GroupNorm(1, 128, eps=1e-05, affine=True)
        )
      )
      (11): SEANetResnetBlock(
        (block): Sequential(
          (0): ELU(alpha=1.0)
          (1): SConv1d(
            (conv): NormConv1d(
              (conv): Conv1d(128, 64, kernel_size=(3,), stride=(1,))
              (norm): GroupNorm(1, 64, eps=1e-05, affine=True)
            )
          )
          (2): ELU(alpha=1.0)
          (3): SConv1d(
            (conv): NormConv1d(
              (conv): Conv1d(64, 128, kernel_size=(1,), stride=(1,))
              (norm): GroupNorm(1, 128, eps=1e-05, affine=True)
            )
          )
        )
        (shortcut): SConv1d(
          (conv): NormConv1d(
            (conv): Conv1d(128, 128, kernel_size=(1,), stride=(1,))
            (norm): GroupNorm(1, 128, eps=1e-05, affine=True)
          )
        )
      )
      (12): SEANetResnetBlock(
        (block): Sequential(
          (0): ELU(alpha=1.0)
          (1): SConv1d(
            (conv): NormConv1d(
              (conv): Conv1d(128, 64, kernel_size=(3,), stride=(1,), dilation=(2,))
              (norm): GroupNorm(1, 64, eps=1e-05, affine=True)
            )
          )
          (2): ELU(alpha=1.0)
          (3): SConv1d(
            (conv): NormConv1d(
              (conv): Conv1d(64, 128, kernel_size=(1,), stride=(1,))
              (norm): GroupNorm(1, 128, eps=1e-05, affine=True)
            )
          )
        )
        (shortcut): SConv1d(
          (conv): NormConv1d(
            (conv): Conv1d(128, 128, kernel_size=(1,), stride=(1,))
            (norm): GroupNorm(1, 128, eps=1e-05, affine=True)
          )
        )
      )
      (13): SEANetResnetBlock(
        (block): Sequential(
          (0): ELU(alpha=1.0)
          (1): SConv1d(
            (conv): NormConv1d(
              (conv): Conv1d(128, 64, kernel_size=(3,), stride=(1,), dilation=(4,))
              (norm): GroupNorm(1, 64, eps=1e-05, affine=True)
            )
          )
          (2): ELU(alpha=1.0)
          (3): SConv1d(
            (conv): NormConv1d(
              (conv): Conv1d(64, 128, kernel_size=(1,), stride=(1,))
              (norm): GroupNorm(1, 128, eps=1e-05, affine=True)
            )
          )
        )
        (shortcut): SConv1d(
          (conv): NormConv1d(
            (conv): Conv1d(128, 128, kernel_size=(1,), stride=(1,))
            (norm): GroupNorm(1, 128, eps=1e-05, affine=True)
          )
        )
      )
      (14): ELU(alpha=1.0)
      (15): SConv1d(
        (conv): NormConv1d(
          (conv): Conv1d(128, 256, kernel_size=(10,), stride=(5,))
          (norm): GroupNorm(1, 256, eps=1e-05, affine=True)
        )
      )
      (16): SEANetResnetBlock(
        (block): Sequential(
          (0): ELU(alpha=1.0)
          (1): SConv1d(
            (conv): NormConv1d(
              (conv): Conv1d(256, 128, kernel_size=(3,), stride=(1,))
              (norm): GroupNorm(1, 128, eps=1e-05, affine=True)
            )
          )
          (2): ELU(alpha=1.0)
          (3): SConv1d(
            (conv): NormConv1d(
              (conv): Conv1d(128, 256, kernel_size=(1,), stride=(1,))
              (norm): GroupNorm(1, 256, eps=1e-05, affine=True)
            )
          )
        )
        (shortcut): SConv1d(
          (conv): NormConv1d(
            (conv): Conv1d(256, 256, kernel_size=(1,), stride=(1,))
            (norm): GroupNorm(1, 256, eps=1e-05, affine=True)
          )
        )
      )
      (17): SEANetResnetBlock(
        (block): Sequential(
          (0): ELU(alpha=1.0)
          (1): SConv1d(
            (conv): NormConv1d(
              (conv): Conv1d(256, 128, kernel_size=(3,), stride=(1,), dilation=(2,))
              (norm): GroupNorm(1, 128, eps=1e-05, affine=True)
            )
          )
          (2): ELU(alpha=1.0)
          (3): SConv1d(
            (conv): NormConv1d(
              (conv): Conv1d(128, 256, kernel_size=(1,), stride=(1,))
              (norm): GroupNorm(1, 256, eps=1e-05, affine=True)
            )
          )
        )
        (shortcut): SConv1d(
          (conv): NormConv1d(
            (conv): Conv1d(256, 256, kernel_size=(1,), stride=(1,))
            (norm): GroupNorm(1, 256, eps=1e-05, affine=True)
          )
        )
      )
      (18): SEANetResnetBlock(
        (block): Sequential(
          (0): ELU(alpha=1.0)
          (1): SConv1d(
            (conv): NormConv1d(
              (conv): Conv1d(256, 128, kernel_size=(3,), stride=(1,), dilation=(4,))
              (norm): GroupNorm(1, 128, eps=1e-05, affine=True)
            )
          )
          (2): ELU(alpha=1.0)
          (3): SConv1d(
            (conv): NormConv1d(
              (conv): Conv1d(128, 256, kernel_size=(1,), stride=(1,))
              (norm): GroupNorm(1, 256, eps=1e-05, affine=True)
            )
          )
        )
        (shortcut): SConv1d(
          (conv): NormConv1d(
            (conv): Conv1d(256, 256, kernel_size=(1,), stride=(1,))
            (norm): GroupNorm(1, 256, eps=1e-05, affine=True)
          )
        )
      )
      (19): ELU(alpha=1.0)
      (20): SConv1d(
        (conv): NormConv1d(
          (conv): Conv1d(256, 512, kernel_size=(16,), stride=(8,))
          (norm): GroupNorm(1, 512, eps=1e-05, affine=True)
        )
      )
      (21): ELU(alpha=1.0)
      (22): SConv1d(
        (conv): NormConv1d(
          (conv): Conv1d(512, 512, kernel_size=(7,), stride=(1,))
          (norm): GroupNorm(1, 512, eps=1e-05, affine=True)
        )
      )
    )
  )
  (1): CostumeQuantizer(
    (rq): ResidualVectorQuantizer(
      (model): DistributedResidualVectorQuantization(
        (layers): ModuleList(
          (0-3): 4 x VectorQuantization(
            (project_in): Identity()
            (project_out): Identity()
            (_codebook): EuclideanCodebook()
          )
        )
      )
    )
  )
  (2): SEANetDecoder(
    (model): Sequential(
      (0): SConv1d(
        (conv): NormConv1d(
          (conv): Conv1d(512, 512, kernel_size=(7,), stride=(1,))
          (norm): GroupNorm(1, 512, eps=1e-05, affine=True)
        )
      )
      (1): ELU(alpha=1.0)
      (2): SConvTranspose1d(
        (convtr): NormConvTranspose1d(
          (convtr): ConvTranspose1d(512, 256, kernel_size=(16,), stride=(8,))
          (norm): GroupNorm(1, 256, eps=1e-05, affine=True)
        )
      )
      (3): SEANetResnetBlock(
        (block): Sequential(
          (0): ELU(alpha=1.0)
          (1): SConv1d(
            (conv): NormConv1d(
              (conv): Conv1d(256, 128, kernel_size=(3,), stride=(1,))
              (norm): GroupNorm(1, 128, eps=1e-05, affine=True)
            )
          )
          (2): ELU(alpha=1.0)
          (3): SConv1d(
            (conv): NormConv1d(
              (conv): Conv1d(128, 256, kernel_size=(1,), stride=(1,))
              (norm): GroupNorm(1, 256, eps=1e-05, affine=True)
            )
          )
        )
        (shortcut): SConv1d(
          (conv): NormConv1d(
            (conv): Conv1d(256, 256, kernel_size=(1,), stride=(1,))
            (norm): GroupNorm(1, 256, eps=1e-05, affine=True)
          )
        )
      )
      (4): SEANetResnetBlock(
        (block): Sequential(
          (0): ELU(alpha=1.0)
          (1): SConv1d(
            (conv): NormConv1d(
              (conv): Conv1d(256, 128, kernel_size=(3,), stride=(1,), dilation=(2,))
              (norm): GroupNorm(1, 128, eps=1e-05, affine=True)
            )
          )
          (2): ELU(alpha=1.0)
          (3): SConv1d(
            (conv): NormConv1d(
              (conv): Conv1d(128, 256, kernel_size=(1,), stride=(1,))
              (norm): GroupNorm(1, 256, eps=1e-05, affine=True)
            )
          )
        )
        (shortcut): SConv1d(
          (conv): NormConv1d(
            (conv): Conv1d(256, 256, kernel_size=(1,), stride=(1,))
            (norm): GroupNorm(1, 256, eps=1e-05, affine=True)
          )
        )
      )
      (5): SEANetResnetBlock(
        (block): Sequential(
          (0): ELU(alpha=1.0)
          (1): SConv1d(
            (conv): NormConv1d(
              (conv): Conv1d(256, 128, kernel_size=(3,), stride=(1,), dilation=(4,))
              (norm): GroupNorm(1, 128, eps=1e-05, affine=True)
            )
          )
          (2): ELU(alpha=1.0)
          (3): SConv1d(
            (conv): NormConv1d(
              (conv): Conv1d(128, 256, kernel_size=(1,), stride=(1,))
              (norm): GroupNorm(1, 256, eps=1e-05, affine=True)
            )
          )
        )
        (shortcut): SConv1d(
          (conv): NormConv1d(
            (conv): Conv1d(256, 256, kernel_size=(1,), stride=(1,))
            (norm): GroupNorm(1, 256, eps=1e-05, affine=True)
          )
        )
      )
      (6): ELU(alpha=1.0)
      (7): SConvTranspose1d(
        (convtr): NormConvTranspose1d(
          (convtr): ConvTranspose1d(256, 128, kernel_size=(10,), stride=(5,))
          (norm): GroupNorm(1, 128, eps=1e-05, affine=True)
        )
      )
      (8): SEANetResnetBlock(
        (block): Sequential(
          (0): ELU(alpha=1.0)
          (1): SConv1d(
            (conv): NormConv1d(
              (conv): Conv1d(128, 64, kernel_size=(3,), stride=(1,))
              (norm): GroupNorm(1, 64, eps=1e-05, affine=True)
            )
          )
          (2): ELU(alpha=1.0)
          (3): SConv1d(
            (conv): NormConv1d(
              (conv): Conv1d(64, 128, kernel_size=(1,), stride=(1,))
              (norm): GroupNorm(1, 128, eps=1e-05, affine=True)
            )
          )
        )
        (shortcut): SConv1d(
          (conv): NormConv1d(
            (conv): Conv1d(128, 128, kernel_size=(1,), stride=(1,))
            (norm): GroupNorm(1, 128, eps=1e-05, affine=True)
          )
        )
      )
      (9): SEANetResnetBlock(
        (block): Sequential(
          (0): ELU(alpha=1.0)
          (1): SConv1d(
            (conv): NormConv1d(
              (conv): Conv1d(128, 64, kernel_size=(3,), stride=(1,), dilation=(2,))
              (norm): GroupNorm(1, 64, eps=1e-05, affine=True)
            )
          )
          (2): ELU(alpha=1.0)
          (3): SConv1d(
            (conv): NormConv1d(
              (conv): Conv1d(64, 128, kernel_size=(1,), stride=(1,))
              (norm): GroupNorm(1, 128, eps=1e-05, affine=True)
            )
          )
        )
        (shortcut): SConv1d(
          (conv): NormConv1d(
            (conv): Conv1d(128, 128, kernel_size=(1,), stride=(1,))
            (norm): GroupNorm(1, 128, eps=1e-05, affine=True)
          )
        )
      )
      (10): SEANetResnetBlock(
        (block): Sequential(
          (0): ELU(alpha=1.0)
          (1): SConv1d(
            (conv): NormConv1d(
              (conv): Conv1d(128, 64, kernel_size=(3,), stride=(1,), dilation=(4,))
              (norm): GroupNorm(1, 64, eps=1e-05, affine=True)
            )
          )
          (2): ELU(alpha=1.0)
          (3): SConv1d(
            (conv): NormConv1d(
              (conv): Conv1d(64, 128, kernel_size=(1,), stride=(1,))
              (norm): GroupNorm(1, 128, eps=1e-05, affine=True)
            )
          )
        )
        (shortcut): SConv1d(
          (conv): NormConv1d(
            (conv): Conv1d(128, 128, kernel_size=(1,), stride=(1,))
            (norm): GroupNorm(1, 128, eps=1e-05, affine=True)
          )
        )
      )
      (11): ELU(alpha=1.0)
      (12): SConvTranspose1d(
        (convtr): NormConvTranspose1d(
          (convtr): ConvTranspose1d(128, 64, kernel_size=(8,), stride=(4,))
          (norm): GroupNorm(1, 64, eps=1e-05, affine=True)
        )
      )
      (13): SEANetResnetBlock(
        (block): Sequential(
          (0): ELU(alpha=1.0)
          (1): SConv1d(
            (conv): NormConv1d(
              (conv): Conv1d(64, 32, kernel_size=(3,), stride=(1,))
              (norm): GroupNorm(1, 32, eps=1e-05, affine=True)
            )
          )
          (2): ELU(alpha=1.0)
          (3): SConv1d(
            (conv): NormConv1d(
              (conv): Conv1d(32, 64, kernel_size=(1,), stride=(1,))
              (norm): GroupNorm(1, 64, eps=1e-05, affine=True)
            )
          )
        )
        (shortcut): SConv1d(
          (conv): NormConv1d(
            (conv): Conv1d(64, 64, kernel_size=(1,), stride=(1,))
            (norm): GroupNorm(1, 64, eps=1e-05, affine=True)
          )
        )
      )
      (14): SEANetResnetBlock(
        (block): Sequential(
          (0): ELU(alpha=1.0)
          (1): SConv1d(
            (conv): NormConv1d(
              (conv): Conv1d(64, 32, kernel_size=(3,), stride=(1,), dilation=(2,))
              (norm): GroupNorm(1, 32, eps=1e-05, affine=True)
            )
          )
          (2): ELU(alpha=1.0)
          (3): SConv1d(
            (conv): NormConv1d(
              (conv): Conv1d(32, 64, kernel_size=(1,), stride=(1,))
              (norm): GroupNorm(1, 64, eps=1e-05, affine=True)
            )
          )
        )
        (shortcut): SConv1d(
          (conv): NormConv1d(
            (conv): Conv1d(64, 64, kernel_size=(1,), stride=(1,))
            (norm): GroupNorm(1, 64, eps=1e-05, affine=True)
          )
        )
      )
      (15): SEANetResnetBlock(
        (block): Sequential(
          (0): ELU(alpha=1.0)
          (1): SConv1d(
            (conv): NormConv1d(
              (conv): Conv1d(64, 32, kernel_size=(3,), stride=(1,), dilation=(4,))
              (norm): GroupNorm(1, 32, eps=1e-05, affine=True)
            )
          )
          (2): ELU(alpha=1.0)
          (3): SConv1d(
            (conv): NormConv1d(
              (conv): Conv1d(32, 64, kernel_size=(1,), stride=(1,))
              (norm): GroupNorm(1, 64, eps=1e-05, affine=True)
            )
          )
        )
        (shortcut): SConv1d(
          (conv): NormConv1d(
            (conv): Conv1d(64, 64, kernel_size=(1,), stride=(1,))
            (norm): GroupNorm(1, 64, eps=1e-05, affine=True)
          )
        )
      )
      (16): ELU(alpha=1.0)
      (17): SConvTranspose1d(
        (convtr): NormConvTranspose1d(
          (convtr): ConvTranspose1d(64, 32, kernel_size=(4,), stride=(2,))
          (norm): GroupNorm(1, 32, eps=1e-05, affine=True)
        )
      )
      (18): SEANetResnetBlock(
        (block): Sequential(
          (0): ELU(alpha=1.0)
          (1): SConv1d(
            (conv): NormConv1d(
              (conv): Conv1d(32, 16, kernel_size=(3,), stride=(1,))
              (norm): GroupNorm(1, 16, eps=1e-05, affine=True)
            )
          )
          (2): ELU(alpha=1.0)
          (3): SConv1d(
            (conv): NormConv1d(
              (conv): Conv1d(16, 32, kernel_size=(1,), stride=(1,))
              (norm): GroupNorm(1, 32, eps=1e-05, affine=True)
            )
          )
        )
        (shortcut): SConv1d(
          (conv): NormConv1d(
            (conv): Conv1d(32, 32, kernel_size=(1,), stride=(1,))
            (norm): GroupNorm(1, 32, eps=1e-05, affine=True)
          )
        )
      )
      (19): SEANetResnetBlock(
        (block): Sequential(
          (0): ELU(alpha=1.0)
          (1): SConv1d(
            (conv): NormConv1d(
              (conv): Conv1d(32, 16, kernel_size=(3,), stride=(1,), dilation=(2,))
              (norm): GroupNorm(1, 16, eps=1e-05, affine=True)
            )
          )
          (2): ELU(alpha=1.0)
          (3): SConv1d(
            (conv): NormConv1d(
              (conv): Conv1d(16, 32, kernel_size=(1,), stride=(1,))
              (norm): GroupNorm(1, 32, eps=1e-05, affine=True)
            )
          )
        )
        (shortcut): SConv1d(
          (conv): NormConv1d(
            (conv): Conv1d(32, 32, kernel_size=(1,), stride=(1,))
            (norm): GroupNorm(1, 32, eps=1e-05, affine=True)
          )
        )
      )
      (20): SEANetResnetBlock(
        (block): Sequential(
          (0): ELU(alpha=1.0)
          (1): SConv1d(
            (conv): NormConv1d(
              (conv): Conv1d(32, 16, kernel_size=(3,), stride=(1,), dilation=(4,))
              (norm): GroupNorm(1, 16, eps=1e-05, affine=True)
            )
          )
          (2): ELU(alpha=1.0)
          (3): SConv1d(
            (conv): NormConv1d(
              (conv): Conv1d(16, 32, kernel_size=(1,), stride=(1,))
              (norm): GroupNorm(1, 32, eps=1e-05, affine=True)
            )
          )
        )
        (shortcut): SConv1d(
          (conv): NormConv1d(
            (conv): Conv1d(32, 32, kernel_size=(1,), stride=(1,))
            (norm): GroupNorm(1, 32, eps=1e-05, affine=True)
          )
        )
      )
      (21): ELU(alpha=1.0)
      (22): SConv1d(
        (conv): NormConv1d(
          (conv): Conv1d(32, 1, kernel_size=(7,), stride=(1,))
          (norm): GroupNorm(1, 1, eps=1e-05, affine=True)
        )
      )
    )
  )
)

Model summary:
    Class Name: ModuleList
    Total Number of model parameters: 10.26 M
    Number of trainable parameters: 10.26 M (100.0%)
    Size: 41.05 MB
    Type: torch.float32.
[x1000c1s2b0n1] 2024-10-19 01:11:08,190 (gan_speech_codec:407) INFO: Discriminator modules: Model structure:
MultipleDiscriminator(
  (discriminators): ModuleList(
    (0): MultiScaleSTFTDiscriminator(
      (discriminators): ModuleList(
        (0-2): 3 x DiscriminatorSTFT(
          (activation): LeakyReLU(negative_slope=0.2)
          (spec_transform): Spectrogram()
          (convs): ModuleList(
            (0): NormConv2d(
              (conv): Conv2d(2, 32, kernel_size=(3, 9), stride=(1, 1), padding=(1, 4))
              (norm): Identity()
            )
            (1): NormConv2d(
              (conv): Conv2d(32, 32, kernel_size=(3, 9), stride=(1, 2), padding=(1, 4))
              (norm): Identity()
            )
            (2): NormConv2d(
              (conv): Conv2d(32, 32, kernel_size=(3, 9), stride=(1, 2), padding=(2, 4), dilation=(2, 1))
              (norm): Identity()
            )
            (3): NormConv2d(
              (conv): Conv2d(32, 32, kernel_size=(3, 9), stride=(1, 2), padding=(4, 4), dilation=(4, 1))
              (norm): Identity()
            )
            (4): NormConv2d(
              (conv): Conv2d(32, 32, kernel_size=(3, 3), stride=(1, 1), padding=(1, 1))
              (norm): Identity()
            )
          )
          (conv_post): NormConv2d(
            (conv): Conv2d(32, 1, kernel_size=(3, 3), stride=(1, 1), padding=(1, 1))
            (norm): Identity()
          )
        )
      )
      (downsample): AvgPool2d(kernel_size=4, stride=2, padding=1)
    )
  )
)

Model summary:
    Class Name: MultipleDiscriminator
    Total Number of model parameters: 283.40 K
    Number of trainable parameters: 283.40 K (100.0%)
    Size: 1.13 MB
    Type: torch.float32.
[x1000c1s2b0n1] 2024-10-19 01:11:08,220 (abs_task:1275) INFO: pytorch.version=2.4.1+cu121, cuda.available=True, cudnn.version=90100, cudnn.benchmark=False, cudnn.deterministic=False
[x1000c1s2b0n1] 2024-10-19 01:11:08,226 (abs_task:1276) INFO: Model structure:
Encodec(
  (encoder): SEANetEncoder(
    (model): Sequential(
      (0): SConv1d(
        (conv): NormConv1d(
          (conv): Conv1d(1, 32, kernel_size=(7,), stride=(1,))
          (norm): GroupNorm(1, 32, eps=1e-05, affine=True)
        )
      )
      (1): SEANetResnetBlock(
        (block): Sequential(
          (0): ELU(alpha=1.0)
          (1): SConv1d(
            (conv): NormConv1d(
              (conv): Conv1d(32, 16, kernel_size=(3,), stride=(1,))
              (norm): GroupNorm(1, 16, eps=1e-05, affine=True)
            )
          )
          (2): ELU(alpha=1.0)
          (3): SConv1d(
            (conv): NormConv1d(
              (conv): Conv1d(16, 32, kernel_size=(1,), stride=(1,))
              (norm): GroupNorm(1, 32, eps=1e-05, affine=True)
            )
          )
        )
        (shortcut): SConv1d(
          (conv): NormConv1d(
            (conv): Conv1d(32, 32, kernel_size=(1,), stride=(1,))
            (norm): GroupNorm(1, 32, eps=1e-05, affine=True)
          )
        )
      )
      (2): SEANetResnetBlock(
        (block): Sequential(
          (0): ELU(alpha=1.0)
          (1): SConv1d(
            (conv): NormConv1d(
              (conv): Conv1d(32, 16, kernel_size=(3,), stride=(1,), dilation=(2,))
              (norm): GroupNorm(1, 16, eps=1e-05, affine=True)
            )
          )
          (2): ELU(alpha=1.0)
          (3): SConv1d(
            (conv): NormConv1d(
              (conv): Conv1d(16, 32, kernel_size=(1,), stride=(1,))
              (norm): GroupNorm(1, 32, eps=1e-05, affine=True)
            )
          )
        )
        (shortcut): SConv1d(
          (conv): NormConv1d(
            (conv): Conv1d(32, 32, kernel_size=(1,), stride=(1,))
            (norm): GroupNorm(1, 32, eps=1e-05, affine=True)
          )
        )
      )
      (3): SEANetResnetBlock(
        (block): Sequential(
          (0): ELU(alpha=1.0)
          (1): SConv1d(
            (conv): NormConv1d(
              (conv): Conv1d(32, 16, kernel_size=(3,), stride=(1,), dilation=(4,))
              (norm): GroupNorm(1, 16, eps=1e-05, affine=True)
            )
          )
          (2): ELU(alpha=1.0)
          (3): SConv1d(
            (conv): NormConv1d(
              (conv): Conv1d(16, 32, kernel_size=(1,), stride=(1,))
              (norm): GroupNorm(1, 32, eps=1e-05, affine=True)
            )
          )
        )
        (shortcut): SConv1d(
          (conv): NormConv1d(
            (conv): Conv1d(32, 32, kernel_size=(1,), stride=(1,))
            (norm): GroupNorm(1, 32, eps=1e-05, affine=True)
          )
        )
      )
      (4): ELU(alpha=1.0)
      (5): SConv1d(
        (conv): NormConv1d(
          (conv): Conv1d(32, 64, kernel_size=(4,), stride=(2,))
          (norm): GroupNorm(1, 64, eps=1e-05, affine=True)
        )
      )
      (6): SEANetResnetBlock(
        (block): Sequential(
          (0): ELU(alpha=1.0)
          (1): SConv1d(
            (conv): NormConv1d(
              (conv): Conv1d(64, 32, kernel_size=(3,), stride=(1,))
              (norm): GroupNorm(1, 32, eps=1e-05, affine=True)
            )
          )
          (2): ELU(alpha=1.0)
          (3): SConv1d(
            (conv): NormConv1d(
              (conv): Conv1d(32, 64, kernel_size=(1,), stride=(1,))
              (norm): GroupNorm(1, 64, eps=1e-05, affine=True)
            )
          )
        )
        (shortcut): SConv1d(
          (conv): NormConv1d(
            (conv): Conv1d(64, 64, kernel_size=(1,), stride=(1,))
            (norm): GroupNorm(1, 64, eps=1e-05, affine=True)
          )
        )
      )
      (7): SEANetResnetBlock(
        (block): Sequential(
          (0): ELU(alpha=1.0)
          (1): SConv1d(
            (conv): NormConv1d(
              (conv): Conv1d(64, 32, kernel_size=(3,), stride=(1,), dilation=(2,))
              (norm): GroupNorm(1, 32, eps=1e-05, affine=True)
            )
          )
          (2): ELU(alpha=1.0)
          (3): SConv1d(
            (conv): NormConv1d(
              (conv): Conv1d(32, 64, kernel_size=(1,), stride=(1,))
              (norm): GroupNorm(1, 64, eps=1e-05, affine=True)
            )
          )
        )
        (shortcut): SConv1d(
          (conv): NormConv1d(
            (conv): Conv1d(64, 64, kernel_size=(1,), stride=(1,))
            (norm): GroupNorm(1, 64, eps=1e-05, affine=True)
          )
        )
      )
      (8): SEANetResnetBlock(
        (block): Sequential(
          (0): ELU(alpha=1.0)
          (1): SConv1d(
            (conv): NormConv1d(
              (conv): Conv1d(64, 32, kernel_size=(3,), stride=(1,), dilation=(4,))
              (norm): GroupNorm(1, 32, eps=1e-05, affine=True)
            )
          )
          (2): ELU(alpha=1.0)
          (3): SConv1d(
            (conv): NormConv1d(
              (conv): Conv1d(32, 64, kernel_size=(1,), stride=(1,))
              (norm): GroupNorm(1, 64, eps=1e-05, affine=True)
            )
          )
        )
        (shortcut): SConv1d(
          (conv): NormConv1d(
            (conv): Conv1d(64, 64, kernel_size=(1,), stride=(1,))
            (norm): GroupNorm(1, 64, eps=1e-05, affine=True)
          )
        )
      )
      (9): ELU(alpha=1.0)
      (10): SConv1d(
        (conv): NormConv1d(
          (conv): Conv1d(64, 128, kernel_size=(8,), stride=(4,))
          (norm): GroupNorm(1, 128, eps=1e-05, affine=True)
        )
      )
      (11): SEANetResnetBlock(
        (block): Sequential(
          (0): ELU(alpha=1.0)
          (1): SConv1d(
            (conv): NormConv1d(
              (conv): Conv1d(128, 64, kernel_size=(3,), stride=(1,))
              (norm): GroupNorm(1, 64, eps=1e-05, affine=True)
            )
          )
          (2): ELU(alpha=1.0)
          (3): SConv1d(
            (conv): NormConv1d(
              (conv): Conv1d(64, 128, kernel_size=(1,), stride=(1,))
              (norm): GroupNorm(1, 128, eps=1e-05, affine=True)
            )
          )
        )
        (shortcut): SConv1d(
          (conv): NormConv1d(
            (conv): Conv1d(128, 128, kernel_size=(1,), stride=(1,))
            (norm): GroupNorm(1, 128, eps=1e-05, affine=True)
          )
        )
      )
      (12): SEANetResnetBlock(
        (block): Sequential(
          (0): ELU(alpha=1.0)
          (1): SConv1d(
            (conv): NormConv1d(
              (conv): Conv1d(128, 64, kernel_size=(3,), stride=(1,), dilation=(2,))
              (norm): GroupNorm(1, 64, eps=1e-05, affine=True)
            )
          )
          (2): ELU(alpha=1.0)
          (3): SConv1d(
            (conv): NormConv1d(
              (conv): Conv1d(64, 128, kernel_size=(1,), stride=(1,))
              (norm): GroupNorm(1, 128, eps=1e-05, affine=True)
            )
          )
        )
        (shortcut): SConv1d(
          (conv): NormConv1d(
            (conv): Conv1d(128, 128, kernel_size=(1,), stride=(1,))
            (norm): GroupNorm(1, 128, eps=1e-05, affine=True)
          )
        )
      )
      (13): SEANetResnetBlock(
        (block): Sequential(
          (0): ELU(alpha=1.0)
          (1): SConv1d(
            (conv): NormConv1d(
              (conv): Conv1d(128, 64, kernel_size=(3,), stride=(1,), dilation=(4,))
              (norm): GroupNorm(1, 64, eps=1e-05, affine=True)
            )
          )
          (2): ELU(alpha=1.0)
          (3): SConv1d(
            (conv): NormConv1d(
              (conv): Conv1d(64, 128, kernel_size=(1,), stride=(1,))
              (norm): GroupNorm(1, 128, eps=1e-05, affine=True)
            )
          )
        )
        (shortcut): SConv1d(
          (conv): NormConv1d(
            (conv): Conv1d(128, 128, kernel_size=(1,), stride=(1,))
            (norm): GroupNorm(1, 128, eps=1e-05, affine=True)
          )
        )
      )
      (14): ELU(alpha=1.0)
      (15): SConv1d(
        (conv): NormConv1d(
          (conv): Conv1d(128, 256, kernel_size=(10,), stride=(5,))
          (norm): GroupNorm(1, 256, eps=1e-05, affine=True)
        )
      )
      (16): SEANetResnetBlock(
        (block): Sequential(
          (0): ELU(alpha=1.0)
          (1): SConv1d(
            (conv): NormConv1d(
              (conv): Conv1d(256, 128, kernel_size=(3,), stride=(1,))
              (norm): GroupNorm(1, 128, eps=1e-05, affine=True)
            )
          )
          (2): ELU(alpha=1.0)
          (3): SConv1d(
            (conv): NormConv1d(
              (conv): Conv1d(128, 256, kernel_size=(1,), stride=(1,))
              (norm): GroupNorm(1, 256, eps=1e-05, affine=True)
            )
          )
        )
        (shortcut): SConv1d(
          (conv): NormConv1d(
            (conv): Conv1d(256, 256, kernel_size=(1,), stride=(1,))
            (norm): GroupNorm(1, 256, eps=1e-05, affine=True)
          )
        )
      )
      (17): SEANetResnetBlock(
        (block): Sequential(
          (0): ELU(alpha=1.0)
          (1): SConv1d(
            (conv): NormConv1d(
              (conv): Conv1d(256, 128, kernel_size=(3,), stride=(1,), dilation=(2,))
              (norm): GroupNorm(1, 128, eps=1e-05, affine=True)
            )
          )
          (2): ELU(alpha=1.0)
          (3): SConv1d(
            (conv): NormConv1d(
              (conv): Conv1d(128, 256, kernel_size=(1,), stride=(1,))
              (norm): GroupNorm(1, 256, eps=1e-05, affine=True)
            )
          )
        )
        (shortcut): SConv1d(
          (conv): NormConv1d(
            (conv): Conv1d(256, 256, kernel_size=(1,), stride=(1,))
            (norm): GroupNorm(1, 256, eps=1e-05, affine=True)
          )
        )
      )
      (18): SEANetResnetBlock(
        (block): Sequential(
          (0): ELU(alpha=1.0)
          (1): SConv1d(
            (conv): NormConv1d(
              (conv): Conv1d(256, 128, kernel_size=(3,), stride=(1,), dilation=(4,))
              (norm): GroupNorm(1, 128, eps=1e-05, affine=True)
            )
          )
          (2): ELU(alpha=1.0)
          (3): SConv1d(
            (conv): NormConv1d(
              (conv): Conv1d(128, 256, kernel_size=(1,), stride=(1,))
              (norm): GroupNorm(1, 256, eps=1e-05, affine=True)
            )
          )
        )
        (shortcut): SConv1d(
          (conv): NormConv1d(
            (conv): Conv1d(256, 256, kernel_size=(1,), stride=(1,))
            (norm): GroupNorm(1, 256, eps=1e-05, affine=True)
          )
        )
      )
      (19): ELU(alpha=1.0)
      (20): SConv1d(
        (conv): NormConv1d(
          (conv): Conv1d(256, 512, kernel_size=(16,), stride=(8,))
          (norm): GroupNorm(1, 512, eps=1e-05, affine=True)
        )
      )
      (21): ELU(alpha=1.0)
      (22): SConv1d(
        (conv): NormConv1d(
          (conv): Conv1d(512, 512, kernel_size=(7,), stride=(1,))
          (norm): GroupNorm(1, 512, eps=1e-05, affine=True)
        )
      )
    )
  )
  (quantizer): CostumeQuantizer(
    (rq): ResidualVectorQuantizer(
      (model): DistributedResidualVectorQuantization(
        (layers): ModuleList(
          (0-3): 4 x VectorQuantization(
            (project_in): Identity()
            (project_out): Identity()
            (_codebook): EuclideanCodebook()
          )
        )
      )
    )
  )
  (decoder): SEANetDecoder(
    (model): Sequential(
      (0): SConv1d(
        (conv): NormConv1d(
          (conv): Conv1d(512, 512, kernel_size=(7,), stride=(1,))
          (norm): GroupNorm(1, 512, eps=1e-05, affine=True)
        )
      )
      (1): ELU(alpha=1.0)
      (2): SConvTranspose1d(
        (convtr): NormConvTranspose1d(
          (convtr): ConvTranspose1d(512, 256, kernel_size=(16,), stride=(8,))
          (norm): GroupNorm(1, 256, eps=1e-05, affine=True)
        )
      )
      (3): SEANetResnetBlock(
        (block): Sequential(
          (0): ELU(alpha=1.0)
          (1): SConv1d(
            (conv): NormConv1d(
              (conv): Conv1d(256, 128, kernel_size=(3,), stride=(1,))
              (norm): GroupNorm(1, 128, eps=1e-05, affine=True)
            )
          )
          (2): ELU(alpha=1.0)
          (3): SConv1d(
            (conv): NormConv1d(
              (conv): Conv1d(128, 256, kernel_size=(1,), stride=(1,))
              (norm): GroupNorm(1, 256, eps=1e-05, affine=True)
            )
          )
        )
        (shortcut): SConv1d(
          (conv): NormConv1d(
            (conv): Conv1d(256, 256, kernel_size=(1,), stride=(1,))
            (norm): GroupNorm(1, 256, eps=1e-05, affine=True)
          )
        )
      )
      (4): SEANetResnetBlock(
        (block): Sequential(
          (0): ELU(alpha=1.0)
          (1): SConv1d(
            (conv): NormConv1d(
              (conv): Conv1d(256, 128, kernel_size=(3,), stride=(1,), dilation=(2,))
              (norm): GroupNorm(1, 128, eps=1e-05, affine=True)
            )
          )
          (2): ELU(alpha=1.0)
          (3): SConv1d(
            (conv): NormConv1d(
              (conv): Conv1d(128, 256, kernel_size=(1,), stride=(1,))
              (norm): GroupNorm(1, 256, eps=1e-05, affine=True)
            )
          )
        )
        (shortcut): SConv1d(
          (conv): NormConv1d(
            (conv): Conv1d(256, 256, kernel_size=(1,), stride=(1,))
            (norm): GroupNorm(1, 256, eps=1e-05, affine=True)
          )
        )
      )
      (5): SEANetResnetBlock(
        (block): Sequential(
          (0): ELU(alpha=1.0)
          (1): SConv1d(
            (conv): NormConv1d(
              (conv): Conv1d(256, 128, kernel_size=(3,), stride=(1,), dilation=(4,))
              (norm): GroupNorm(1, 128, eps=1e-05, affine=True)
            )
          )
          (2): ELU(alpha=1.0)
          (3): SConv1d(
            (conv): NormConv1d(
              (conv): Conv1d(128, 256, kernel_size=(1,), stride=(1,))
              (norm): GroupNorm(1, 256, eps=1e-05, affine=True)
            )
          )
        )
        (shortcut): SConv1d(
          (conv): NormConv1d(
            (conv): Conv1d(256, 256, kernel_size=(1,), stride=(1,))
            (norm): GroupNorm(1, 256, eps=1e-05, affine=True)
          )
        )
      )
      (6): ELU(alpha=1.0)
      (7): SConvTranspose1d(
        (convtr): NormConvTranspose1d(
          (convtr): ConvTranspose1d(256, 128, kernel_size=(10,), stride=(5,))
          (norm): GroupNorm(1, 128, eps=1e-05, affine=True)
        )
      )
      (8): SEANetResnetBlock(
        (block): Sequential(
          (0): ELU(alpha=1.0)
          (1): SConv1d(
            (conv): NormConv1d(
              (conv): Conv1d(128, 64, kernel_size=(3,), stride=(1,))
              (norm): GroupNorm(1, 64, eps=1e-05, affine=True)
            )
          )
          (2): ELU(alpha=1.0)
          (3): SConv1d(
            (conv): NormConv1d(
              (conv): Conv1d(64, 128, kernel_size=(1,), stride=(1,))
              (norm): GroupNorm(1, 128, eps=1e-05, affine=True)
            )
          )
        )
        (shortcut): SConv1d(
          (conv): NormConv1d(
            (conv): Conv1d(128, 128, kernel_size=(1,), stride=(1,))
            (norm): GroupNorm(1, 128, eps=1e-05, affine=True)
          )
        )
      )
      (9): SEANetResnetBlock(
        (block): Sequential(
          (0): ELU(alpha=1.0)
          (1): SConv1d(
            (conv): NormConv1d(
              (conv): Conv1d(128, 64, kernel_size=(3,), stride=(1,), dilation=(2,))
              (norm): GroupNorm(1, 64, eps=1e-05, affine=True)
            )
          )
          (2): ELU(alpha=1.0)
          (3): SConv1d(
            (conv): NormConv1d(
              (conv): Conv1d(64, 128, kernel_size=(1,), stride=(1,))
              (norm): GroupNorm(1, 128, eps=1e-05, affine=True)
            )
          )
        )
        (shortcut): SConv1d(
          (conv): NormConv1d(
            (conv): Conv1d(128, 128, kernel_size=(1,), stride=(1,))
            (norm): GroupNorm(1, 128, eps=1e-05, affine=True)
          )
        )
      )
      (10): SEANetResnetBlock(
        (block): Sequential(
          (0): ELU(alpha=1.0)
          (1): SConv1d(
            (conv): NormConv1d(
              (conv): Conv1d(128, 64, kernel_size=(3,), stride=(1,), dilation=(4,))
              (norm): GroupNorm(1, 64, eps=1e-05, affine=True)
            )
          )
          (2): ELU(alpha=1.0)
          (3): SConv1d(
            (conv): NormConv1d(
              (conv): Conv1d(64, 128, kernel_size=(1,), stride=(1,))
              (norm): GroupNorm(1, 128, eps=1e-05, affine=True)
            )
          )
        )
        (shortcut): SConv1d(
          (conv): NormConv1d(
            (conv): Conv1d(128, 128, kernel_size=(1,), stride=(1,))
            (norm): GroupNorm(1, 128, eps=1e-05, affine=True)
          )
        )
      )
      (11): ELU(alpha=1.0)
      (12): SConvTranspose1d(
        (convtr): NormConvTranspose1d(
          (convtr): ConvTranspose1d(128, 64, kernel_size=(8,), stride=(4,))
          (norm): GroupNorm(1, 64, eps=1e-05, affine=True)
        )
      )
      (13): SEANetResnetBlock(
        (block): Sequential(
          (0): ELU(alpha=1.0)
          (1): SConv1d(
            (conv): NormConv1d(
              (conv): Conv1d(64, 32, kernel_size=(3,), stride=(1,))
              (norm): GroupNorm(1, 32, eps=1e-05, affine=True)
            )
          )
          (2): ELU(alpha=1.0)
          (3): SConv1d(
            (conv): NormConv1d(
              (conv): Conv1d(32, 64, kernel_size=(1,), stride=(1,))
              (norm): GroupNorm(1, 64, eps=1e-05, affine=True)
            )
          )
        )
        (shortcut): SConv1d(
          (conv): NormConv1d(
            (conv): Conv1d(64, 64, kernel_size=(1,), stride=(1,))
            (norm): GroupNorm(1, 64, eps=1e-05, affine=True)
          )
        )
      )
      (14): SEANetResnetBlock(
        (block): Sequential(
          (0): ELU(alpha=1.0)
          (1): SConv1d(
            (conv): NormConv1d(
              (conv): Conv1d(64, 32, kernel_size=(3,), stride=(1,), dilation=(2,))
              (norm): GroupNorm(1, 32, eps=1e-05, affine=True)
            )
          )
          (2): ELU(alpha=1.0)
          (3): SConv1d(
            (conv): NormConv1d(
              (conv): Conv1d(32, 64, kernel_size=(1,), stride=(1,))
              (norm): GroupNorm(1, 64, eps=1e-05, affine=True)
            )
          )
        )
        (shortcut): SConv1d(
          (conv): NormConv1d(
            (conv): Conv1d(64, 64, kernel_size=(1,), stride=(1,))
            (norm): GroupNorm(1, 64, eps=1e-05, affine=True)
          )
        )
      )
      (15): SEANetResnetBlock(
        (block): Sequential(
          (0): ELU(alpha=1.0)
          (1): SConv1d(
            (conv): NormConv1d(
              (conv): Conv1d(64, 32, kernel_size=(3,), stride=(1,), dilation=(4,))
              (norm): GroupNorm(1, 32, eps=1e-05, affine=True)
            )
          )
          (2): ELU(alpha=1.0)
          (3): SConv1d(
            (conv): NormConv1d(
              (conv): Conv1d(32, 64, kernel_size=(1,), stride=(1,))
              (norm): GroupNorm(1, 64, eps=1e-05, affine=True)
            )
          )
        )
        (shortcut): SConv1d(
          (conv): NormConv1d(
            (conv): Conv1d(64, 64, kernel_size=(1,), stride=(1,))
            (norm): GroupNorm(1, 64, eps=1e-05, affine=True)
          )
        )
      )
      (16): ELU(alpha=1.0)
      (17): SConvTranspose1d(
        (convtr): NormConvTranspose1d(
          (convtr): ConvTranspose1d(64, 32, kernel_size=(4,), stride=(2,))
          (norm): GroupNorm(1, 32, eps=1e-05, affine=True)
        )
      )
      (18): SEANetResnetBlock(
        (block): Sequential(
          (0): ELU(alpha=1.0)
          (1): SConv1d(
            (conv): NormConv1d(
              (conv): Conv1d(32, 16, kernel_size=(3,), stride=(1,))
              (norm): GroupNorm(1, 16, eps=1e-05, affine=True)
            )
          )
          (2): ELU(alpha=1.0)
          (3): SConv1d(
            (conv): NormConv1d(
              (conv): Conv1d(16, 32, kernel_size=(1,), stride=(1,))
              (norm): GroupNorm(1, 32, eps=1e-05, affine=True)
            )
          )
        )
        (shortcut): SConv1d(
          (conv): NormConv1d(
            (conv): Conv1d(32, 32, kernel_size=(1,), stride=(1,))
            (norm): GroupNorm(1, 32, eps=1e-05, affine=True)
          )
        )
      )
      (19): SEANetResnetBlock(
        (block): Sequential(
          (0): ELU(alpha=1.0)
          (1): SConv1d(
            (conv): NormConv1d(
              (conv): Conv1d(32, 16, kernel_size=(3,), stride=(1,), dilation=(2,))
              (norm): GroupNorm(1, 16, eps=1e-05, affine=True)
            )
          )
          (2): ELU(alpha=1.0)
          (3): SConv1d(
            (conv): NormConv1d(
              (conv): Conv1d(16, 32, kernel_size=(1,), stride=(1,))
              (norm): GroupNorm(1, 32, eps=1e-05, affine=True)
            )
          )
        )
        (shortcut): SConv1d(
          (conv): NormConv1d(
            (conv): Conv1d(32, 32, kernel_size=(1,), stride=(1,))
            (norm): GroupNorm(1, 32, eps=1e-05, affine=True)
          )
        )
      )
      (20): SEANetResnetBlock(
        (block): Sequential(
          (0): ELU(alpha=1.0)
          (1): SConv1d(
            (conv): NormConv1d(
              (conv): Conv1d(32, 16, kernel_size=(3,), stride=(1,), dilation=(4,))
              (norm): GroupNorm(1, 16, eps=1e-05, affine=True)
            )
          )
          (2): ELU(alpha=1.0)
          (3): SConv1d(
            (conv): NormConv1d(
              (conv): Conv1d(16, 32, kernel_size=(1,), stride=(1,))
              (norm): GroupNorm(1, 32, eps=1e-05, affine=True)
            )
          )
        )
        (shortcut): SConv1d(
          (conv): NormConv1d(
            (conv): Conv1d(32, 32, kernel_size=(1,), stride=(1,))
            (norm): GroupNorm(1, 32, eps=1e-05, affine=True)
          )
        )
      )
      (21): ELU(alpha=1.0)
      (22): SConv1d(
        (conv): NormConv1d(
          (conv): Conv1d(32, 1, kernel_size=(7,), stride=(1,))
          (norm): GroupNorm(1, 1, eps=1e-05, affine=True)
        )
      )
    )
  )
  (discriminator): MultipleDiscriminator(
    (discriminators): ModuleList(
      (0): MultiScaleSTFTDiscriminator(
        (discriminators): ModuleList(
          (0-2): 3 x DiscriminatorSTFT(
            (activation): LeakyReLU(negative_slope=0.2)
            (spec_transform): Spectrogram()
            (convs): ModuleList(
              (0): NormConv2d(
                (conv): Conv2d(2, 32, kernel_size=(3, 9), stride=(1, 1), padding=(1, 4))
                (norm): Identity()
              )
              (1): NormConv2d(
                (conv): Conv2d(32, 32, kernel_size=(3, 9), stride=(1, 2), padding=(1, 4))
                (norm): Identity()
              )
              (2): NormConv2d(
                (conv): Conv2d(32, 32, kernel_size=(3, 9), stride=(1, 2), padding=(2, 4), dilation=(2, 1))
                (norm): Identity()
              )
              (3): NormConv2d(
                (conv): Conv2d(32, 32, kernel_size=(3, 9), stride=(1, 2), padding=(4, 4), dilation=(4, 1))
                (norm): Identity()
              )
              (4): NormConv2d(
                (conv): Conv2d(32, 32, kernel_size=(3, 3), stride=(1, 1), padding=(1, 1))
                (norm): Identity()
              )
            )
            (conv_post): NormConv2d(
              (conv): Conv2d(32, 1, kernel_size=(3, 3), stride=(1, 1), padding=(1, 1))
              (norm): Identity()
            )
          )
        )
        (downsample): AvgPool2d(kernel_size=4, stride=2, padding=1)
      )
    )
  )
  (mel_spec_transforms): ModuleList(
    (0-5): 6 x Audio2Mel()
  )
)

Model summary:
    Class Name: Encodec
    Total Number of model parameters: 10.55 M
    Number of trainable parameters: 10.55 M (100.0%)
…
